logs/farm_lake_MinNetV3_20/best_epoch_weights.pth (torch, 631654 bytes, 115 tensors)

encoder.conv1.weight f4 [32, 3, 3, 3]
-0.14928958 -0.023038508 0.16226117 -0.14280623 0.014822674 0.05054005 0.020506524 -0.16087677
0.0062506585 0.16167559 -0.09469236 0.09455956 -0.09108606 -0.020213343 0.08881447 0.000727982
-0.16061631 0.08743918 0.105731 0.08770549 0.1201916 0.073865935 0.11499072 0.009462842
0.12456601 -0.18265554 -0.044304587 -0.06759552 -0.13036007 0.016491482 0.10029706 -0.16630833
-0.13221705 -0.10208907 0.11392985 -0.18701172 0.16709559 -0.13221593 -0.034871724 -0.044710383
-0.089234196 0.12733549 -0.023964675 -0.12773548 -0.10283553 0.026744168 0.051565178 -0.09231341
0.03261865 -0.11289453 0.007419914 0.08865935 -0.0060629277 -0.034616012 -0.014979094 0.055481806
-0.099388145 0.0008595333 0.11753019 0.003720012 0.10561966 -0.1807503 -0.1439368 -0.11227859
0.075394616 0.097707205 -0.17119732 0.045702737 -0.043657996 0.012183455 0.15479547 -0.18342835
0.03973471 0.110922895 0.018695414 -0.11133282 -0.03648408 -0.043271247 0.13766943 0.17212947
-0.04944901 -0.20355631 -0.079956084 -0.12564 0.14246781 0.15984814 0.07825022 -0.03493853
-0.1955856 0.0012203446 -0.074646614 -0.0046037734 -0.098196045 -0.025153665 0.101965025 0.18258364
0.1571988 -0.09812548 0.12763323 0.15293051 0.097346015 0.20149823 0.032695822 -0.008615389
-0.09444874 -0.023994034 0.0941817 -0.113921575 0.037494663 -0.048529167 -0.14757869 -0.026643967
-0.08260672 0.1583865 -0.089512415 0.18388492 0.10230615 0.18258832 -0.0008839912 -0.0031649396
-0.17028344 0.062234282 0.10684666 -0.017507955 -0.012892195 -0.02542697 0.11149657 -0.09496914
0.010000897 0.048015106 0.085816875 0.16445921 -0.1455228 0.050775535 0.046557833 -0.095710486
-0.05828944 -0.07564519 -0.1604785 -0.16868223 -0.030658536 0.12643969 0.18492146 0.01568717
-0.118479304 -0.05298556 0.036162406 0.063936725 0.045783453 -0.06545869 0.07129672 0.19221228
-0.115088485 -0.07587174 -0.14192922 -0.111004665 0.1594915 0.069317564 -0.030936703 -0.012747118
0.14684473 0.04871871 -0.050817195 0.030923245 -0.04626313 -0.008622038 -0.14599943 -0.09381656
-0.17140932 0.091153435 -0.10465453 0.022732876 -0.09524685 0.03659772 -0.08398321 0.0977671
0.19908038 -0.10344921 -0.14818698 0.037556477 0.14178269 0.17664194 -0.12050142 0.16001382
-0.0387441 -0.093350664 0.0023340129 -0.056818888 0.011645017 0.0060856915 -0.11936205 -0.099434
0.06736721 0.0014430115 0.015484513 0.044725895 0.071030416 -0.07482181 -0.085777946 -0.16633144
-0.041207526 -0.052507516 0.09342791 0.026895968 -0.10825348 0.095162295 -0.07898492 -0.031106032
-0.12355093 0.10865597 -0.050835535 0.100667916 -0.18225066 0.15765661 0.159736 -0.15561852
0.17791134 0.09404224 0.024306413 0.098275736 -0.06920256 0.12092017 -0.18481943 -0.19248404
0.15994233 -0.18454483 -0.17682555 0.009176073 -0.025945378 0.058081117 -0.07699502 0.110750034
0.018065209 -0.015558541 -0.09414151 0.18740313 -0.04576542 0.007799352 -0.09811209 -0.026115505
0.14131305 0.165132 -0.13164854 -0.036215264 -0.095642515 -0.12075883 -0.04502036 -0.017742597
-0.07740301 -0.035030555 -0.18158536 0.006878292 0.07021452 0.17857501 0.2021114 -0.15658224
00000000: 5edf 18be 41bb bcbc cb27 263e cc3b 12be
00000010: cdda 723c 1503 4f3d 4cfd a73c e1bc 24be
00000020: 53d2 cc3b 498e 253e 11ee c1bd 71a8 c13d
00000030: 548b babd 7496 a5bc 5ce4 b53d 0cd6 3e3a
00000040: 9a78 24be 5013 b33d 7f89 d83d f09e b33d
00000050: 0327 f63d 0647 973d 4180 eb3d 090a 1b3c
00000060: 771c ff3d 0e0a 3bbe ba78 35bd 856f 8abd
00000070: 1c7d 05be 2519 873c 8c68 cd3d bb4c 2abe
00000080: e863 07be 1314 d1bd 0e54 e93d 0080 3fbe
00000090: 1b1b 2b3e 9d63 07be a7d5 0ebd 3c22 37bd
000000a0: 6bc0 b6bd 3c64 023e 9151 c4bc 17cd 02be
000000b0: 6f9b d2bd 9616 db3c 0236 533d d00e bdbd
000000c0: 229b 053d 3f35 e7bd c022 f33b 0993 b53d
000000d0: 86ab c6bb 85c9 0dbd e06a 75bc e440 633d
000000e0: 038c cbbd 4e52 613a abb3 f03d 72cb 733b
000000f0: 1f4f d83d 9b16 39be 2b64 13be 51f2 e5bd
00000100: 7e68 9a3d b71a c83d 5a4e 2fbe cb32 3b3d
00000110: bad2 32bd 1d9d 473c b482 1e3e a4d4 3bbe
00000120: ddc0 223d 8b2b e33d 2027 993c 7602 e4bd
00000130: 5570 15bd 313d 31bd 37f9 0c3e b542 303e
00000140: 0c8b 4abd 1171 50be 04c0 a3bd c6a7 00be
00000150: 15e3 113e 3baf 233e a741 a03d b41b 0fbd
00000160: 9747 48be f8f3 9f3a 53e0 98bd 40db 96bb
00000170: 021b c9bd 0f0f cebc 0ad3 d03d 35f7 3a3e
00000180: b9f8 203e 03f6 c8bd 49b2 023e d199 1c3e
00000190: 595d c73d 8d55 4e3e 0eec 053d 8f27 0dbc
000001a0: 576e c1bd 238f c4bc 56e2 c03d b74f e9bd
000001b0: 0194 193d 85c6 46bd de1e 17be 7344 dabc
000001c0: b62d a9bd 1230 223e 4952 b7bd 544c 3c3e
000001d0: e385 d13d 6ff8 3a3e a5bb 67ba e06a 4fbb
000001e0: c85e 2ebe 60e9 7e3d 6cd2 da3d d86c 8fbc
000001f0: c939 53bc 394c d0bc 5058 e43d 2e7f c2bd
00000200: cdda 233c 7dab 443d c2c0 af3d ff67 283e
00000210: ee03 15be 02fa 4f3d 6db3 3e3d dc03 c4bd
00000220: e8c0 6ebd deeb 9abd 7a54 24be 09bb 2cbe
00000230: 9c27 fbbc 6879 013e 0d5c 3d3e 6182 803c
00000240: 47a5 f2bd 6307 59bd 081f 143d 42f1 823d
00000250: 6e87 3b3d 350f 86bd 0404 923d 4cd3 443e
00000260: 83b3 ebbd a562 9bbd e555 11be 6a56 e3bd
00000270: bd51 233e 5ef6 8d3d f86e fdbc 4ad9 50bc
00000280: 775e 163e 458d 473d b125 50bd bf52 fd3c
00000290: 687e 3dbd 7343 0dbc e080 15be e622 c0bd
000002a0: ed85 2fbe a7ae ba3d 1d55 d6bd 4c3a ba3c
000002b0: c810 c3bd 7ee7 153d 64ff abbd 1e3a c83d
000002c0: badb 4b3e 2edd d3bd 54be 17be d2d4 193d
000002d0: 7b2f 113e a0e1 343e 73c9 f6bd aada 233e
000002e0: 22b2 1ebd a22e bfbd 3df6 183b ecba 68bd
000002f0: beca 3e3c 7b6a c73b 1774 f4bd 0ea4 cbbd
00000300: d2f7 893d 6e23 bd3a c1b2 7d3c 8032 373d
00000310: 6578 913d 2d3c 99bd 59ac afbd ca52 2abe
00000320: 39c9 28bd 1f12 57bd 2257 bf3d ef54 dc3c
00000330: 00b4 ddbd 73e4 c23d d9c2 a1bd 14d2 febc
00000340: 4508 fdbd 0587 de3d ec38 50bd fb2a ce3d
00000350: eb9f 3abe bc70 213e d591 233e 765a 1fbe
00000360: 642e 363e 3899 c03d 3e1e c73c ca44 c93d
00000370: 12ba 8dbd fea4 f73d 4e41 3dbe 891a 45be
00000380: ecc7 233e 52f9 3cbe c211 35be 3d57 163c
00000390: 678b d4bc 77e6 6d3d 91af 9dbd ead0 e23d
000003a0: 7dfd 933c 40e9 7ebc 44cd c0bd 9be6 3f3e
000003b0: 8574 3bbd b591 ff3b feee c8bd 2ff0 d5bc
000003c0: 5eb4 103e 5d18 293e e0ce 06be 7556 14bd
000003d0: 39e0 c3bd 6850 f7bd 4567 38bd ec58 91bc
000003e0: 7885 9ebd 337c 0fbd 83f1 39be 4c63 e13b
000003f0: a1cc 8f3d 5edc 363e 4af6 4e3e 1857 20be

encoder.conv1.bias f4 [32]
0.04637519 -0.19162504 -0.1746575 0.033159837 0.034183573 0.11460622 -0.033721477 -0.15971594
-0.10566765 0.020667763 0.06685311 -0.030924793 0.018226825 0.15994301 -0.15761292 -0.0061841784
0.07451781 -0.043582458 0.05227328 0.17138878 0.17013696 -0.12701875 0.043591976 0.028882775
-0.02760548 0.009638837 0.02601338 0.037396822 -0.04063221 0.13947433 -0.11353043 0.07987687
00000000: e9f3 3d3d 5b39 44be 6ad9 32be 9cd2 073d
00000010: 1304 0c3d aab6 ea3d 881f 0abd 938c 23be
00000020: 4868 d8bd 714f a93c 49ea 883d fe55 fdbc
00000030: 6c50 953c 1ac8 233e 4865 21be a6a4 cabb
00000040: cb9c 983d 8583 32bd 821c 563d 8a80 2f3e
00000050: 6238 2e3e 3411 02be 808d 323d 929b ec3c
00000060: e324 e2bc 36ec 1d3c 031a d53c 692d 193d
00000070: f66d 26bd 5cd2 0e3e a482 e8bd 7c96 a33d

encoder.block1.point_wise_up.0.weight f4 [64, 32, 1, 1]
0.07278394 0.13567959 -0.047112286 -0.1574818 -0.03778951 -0.16904157 0.01625858 -0.1697297
0.07497327 0.023166945 -0.11054416 -0.13170226 0.114898 0.13069439 -0.002994299 0.005958043
-0.13527577 0.16086188 0.051221836 -0.11822505 0.112677805 0.048292816 0.121827245 -0.046787325
-0.0358887 0.08383383 -0.16120438 -0.08402245 -0.014623802 0.06635328 0.045526356 -0.08321905
-0.1678016 -0.13486363 0.054243647 -0.16813466 -0.054029938 -0.14727917 0.07311627 0.0022006778
-0.025131214 0.13467138 0.075045474 -0.054477226 -0.15162511 -0.016681015 -0.10562409 -0.1062172
-0.02717725 0.037858307 -0.16061318 0.16019039 -0.09421056 -0.18880424 -0.020016083 -0.15086922
0.06341052 0.114745066 -0.049551215 0.1344367 0.02330248 -0.1765933 -0.07714916 0.1388242
-0.16648813 -0.13529298 0.15768234 0.15533404 0.038296465 -0.1084329 0.016372487 0.1243804
0.10431761 -0.056127932 -0.072636895 -0.061660405 0.010800879 -0.098643295 0.068133354 0.010318997
0.16281778 0.16681483 0.12356882 0.0015500557 0.057441365 0.06619778 0.0616985 0.12655666
-0.08540419 0.09160609 0.10359421 -0.030194212 -0.101481795 -0.11351955 -0.03656333 0.10582892
-0.0033098173 0.091959484 -0.10344099 0.15068471 0.10176251 -0.0058721295 0.092803456 0.13601714
-0.07242152 0.046425935 0.13070185 0.13293125 0.12393506 -0.069612324 0.08007853 -0.047516573
-0.012483563 0.17299016 -0.021441653 0.14655335 -0.05161385 -0.12600036 -0.002456951 0.12398159
0.089314766 -0.037893943 0.022649411 -0.10058534 0.017354175 0.03916262 0.03301058 -0.08117347
0.15477356 0.021079546 -0.06650469 -0.067135856 0.0894148 0.09036587 0.09861803 0.049124442
-0.012327282 0.028718363 0.17998208 -0.124968275 -0.15596473 -0.11726885 -0.13555361 0.003530261
-0.09436415 -0.02559637 -0.15695181 0.062473353 0.054957055 -0.01548387 -0.15446544 0.16806993
0.107122645 0.084855415 0.0074796733 -0.040101007 0.109731376 0.05851104 -0.05924211 -0.08362223
0.06207162 -0.11775257 -0.12202233 0.03267826 -0.057855114 -0.097344406 0.16992499 0.18030854
-0.02241595 0.040195085 -0.14789464 -0.14212902 -0.09730427 0.14883628 0.12971115 -0.15004216
0.13287435 0.057748802 -0.12508129 0.032776933 -0.07697869 -0.11005086 -0.107207045 0.12206366
-0.016287336 0.044862516 -0.10414774 0.112882935 -0.10052156 -0.16085576 0.038735446 -0.09680488
0.11414089 0.08366336 0.06216911 0.04554832 0.1085295 0.04647616 0.08836058 0.12417732
-0.0031054132 -0.04440913 0.040614538 -0.18500152 0.10954389 0.07440154 0.013504443 -0.19361603
0.12312993 0.090867676 0.14475787 -0.00038932392 -0.088982575 0.06388381 0.07596565 0.054797433
-0.124861464 -0.006094547 -0.0042998986 -0.08582363 0.0126182465 -0.13129601 0.04022294 -0.10442019
-0.079010986 -0.024344562 0.12572566 0.11089601 0.018871464 -0.13479786 -0.05494634 0.15771435
-0.044003244 -0.14653318 -0.061389063 -0.016727135 0.04241179 -0.12416629 0.056720417 0.1565443
0.011435858 0.13164629 -0.15297265 0.10477178 0.12924102 0.08946616 -0.015075969 0.03429856
-0.040109646 0.028603716 0.13693847 0.040426653 0.16716966 0.17447329 -0.018940434 -0.041312452
00000000: bf0f 953d 97ef 0a3e d0f8 40bd e942 21be
00000010: 2cc9 1abd 3c19 2dbe b730 853c 9fcd 2dbe
00000020: 968b 993d 9bc8 bd3c fa64 e2bd f5dc 06be
00000030: a54f eb3d c0d4 053e 003c 44bb b03b c33b
00000040: bb85 0abe fab8 243e fdcd 513d fa1f f2bd
00000050: 9fc3 e63d b0ce 453d 9080 f93d 11a4 3fbd
00000060: 0800 13bd 12b1 ab3d c312 25be f613 acbd
00000070: ac98 6fbc 3ae4 873d d879 3a3d c06e aabd
00000080: 2fd4 2bbe b119 0abe 962e 5e3d 7e2b 2cbe
00000090: 7f4e 5dbd 5ad0 16be fcbd 953d 3f39 103b
000000a0: fadf cdbc 4be7 093e 71b1 993d 8323 5fbd
000000b0: 9d43 1bbe a0a6 88bc 7151 d8bd 6788 d9bd
000000c0: d3a2 debc 5011 1b3d c877 24be f308 243e
000000d0: 77f1 c0bd e655 41be c5f8 a3bc 767d 1abe
000000e0: 60dd 813d 76ff ea3d 37f6 4abd c6a9 093e
000000f0: d8e4 be3c e0d4 34be 6100 9ebd ee27 0e3e
00000100: dd7b 2abe 3e8a 0abe 7b77 213e e30f 1f3e
00000110: c1dc 1c3d 1112 debd 981f 863c 27bb fe3d
00000120: 79a4 d53d 67e6 65bd a7c2 94bd 9f8f 7cbd
00000130: 2cf6 303c 7f05 cabd 8089 8b3d 0311 293c
00000140: b4b9 263e 82d1 2a3e a611 fd3d 3d2b cb3a
00000150: a347 6b3d b492 873d 91b7 7c3d 1298 013e
00000160: 64e8 aebd f99b bb3d 3429 d43d da59 f7bc
00000170: b0d5 cfbd f07c e8bd 6ec3 15bd d5bc d83d
00000180: 85e9 58bb 4155 bc3d dfd8 d3bd 184d 1a3e
00000190: dd68 d03d fe6a c0bb bd0f be3d 1448 0b3e
000001a0: bc51 94bd 1f29 3e3d b5d6 053e 211f 083e
000001b0: aad1 fd3d e890 8ebd 3600 a43d bda0 42bd
000001c0: dc87 4cbc 5524 313e 68a6 afbc 1512 163e
000001d0: 0b69 53bd 3d06 01be cc04 21bb 0fea fd3d
000001e0: a9ea b63d ae36 1bbd 428b b93c b0ff cdbd
000001f0: 582a 8e3c fc68 203d 1a36 073d 473e a6bd
00000200: f67c 1e3e 03af ac3c 9c33 88bd 867e 89bd
00000210: 1b1f b73d be11 b93d 40f8 c93d b636 493d
00000220: 5ef8 49bc c642 eb3c 394d 383e 5eef ffbd
00000230: 38b5 1fbe a72a f0bd 91ce 0abe f45b 673b
00000240: fe41 c1bd 7baf d1bc fab7 20be 0fe4 7f3d
00000250: a61a 613d 0fb0 7dbc 302c 1ebe 861a 2c3e
00000260: 1e63 db3d adc8 ad3d 0c18 f53b f440 24bd
00000270: d8ba e03d 46a9 6f3d dba7 72bd 2242 abbd
00000280: d03e 7e3d 4228 f1bd d8e6 f9bd a4d9 053d
00000290: 7cf9 6cbd 815c c7bd d100 2e3e cda2 383e
000002a0: a8a1 b7bc 9aa3 243d b171 17be 458a 11be
000002b0: 7647 c7bd 8a68 183e 00d3 043e a7a4 19be
000002c0: 3710 083e 028a 6c3d 4f15 00be 1b41 063d
000002d0: 01a7 9dbd 5862 e1bd 5e8f dbbd 83fc f93d
000002e0: 056d 85bc c2c1 373d 694b d5bd 2b2f e73d
000002f0: 3fde cdbd 5fb7 24be 0fa9 1e3d a341 c6bd
00000300: b3c2 e93d b257 ab3d 09a5 7e3d e090 3a3d
00000310: b744 de3d c95d 3e3d 64f6 b43d ae50 fe3d
00000320: 3084 4bbb 59e6 35bd 6e5b 263d 0a71 3dbe
00000330: 8c58 e03d d65f 983d bd41 5d3c 4843 46be
00000340: 8b2b fc3d d518 ba3d 683b 143e 2c1e ccb9
00000350: 7f3c b6bd 84d5 823d e193 9b3d 4673 603d
00000360: 5eb7 ffbd c4b4 c7bb 2ae6 8cbb 4dc4 afbd
00000370: c3bc 4e3c 7672 06be cfc0 243d 41da d5bd
00000380: 83d0 a1bd 3f6e c7bc 3abe 003e 731d e33d
00000390: 5498 9a3c 7308 0abe 6a0f 61bd df7f 213e
000003a0: bf3c 34bd cb0c 16be 1973 7bbd 5807 89bc
000003b0: fcb7 2d3d e54a febd ab53 683d 264d 203e
000003c0: 775d 3b3c 49ce 063e dda4 1cbe 9692 d63d
000003d0: c257 043e 093a b73d 3201 77bc a67c 0c3d
000003e0: 034a 24bd 5752 ea3c 9939 0c3e 6b96 253d
000003f0: 862e 2b3e 20a9 323e f828 9bbc 3f37 29bd

encoder.block1.point_wise_up.1.weight f4 [64]
0.9896941 1.0180235 0.8965277 0.8771454 1.0195256 0.91924137 1.0153159 0.927713
0.9876495 0.9790906 0.9796528 0.9798996 0.97216916 0.9562527 0.99582714 0.9586577
1.0127051 0.90982664 0.9796591 0.9147343 0.95773613 1.0131689 0.98220253 0.9648852
1.0580678 0.96332747 0.9360031 0.9718936 0.98364913 1.0180191 1.0232743 0.9251458
1.0281703 0.9804114 1.0843285 0.98989 0.9656284 0.95948356 0.9440437 0.97197586
0.9422113 0.95332915 0.9971907 0.99422294 0.95728517 1.0860952 1.021301 0.9903914
0.91800994 0.97309995 1.021907 1.0213884 0.9886171 0.9699069 0.9854059 1.0014591
0.99781823 0.92149895 0.9912101 0.9729268 1.0164728 0.9998585 0.98803157 0.9848857
00000000: 985c 7d3f 984e 823f d782 653f 9a8c 603f
00000010: d17f 823f 6753 6b3f dff5 813f 997e 6d3f
00000020: 99d6 7c3f aea5 7a3f 87ca 7a3f b3da 7a3f
00000030: 14e0 783f facc 743f 87ee 7e3f 976a 753f
00000040: 52a0 813f 66ea 683f f0ca 7a3f 072c 6a3f
00000050: 322e 753f 85af 813f a071 7b3f b702 773f
00000060: c46e 873f a19c 763f e69d 6f3f 05ce 783f
00000070: 6ed0 7b3f 734e 823f a7fa 823f 5bd6 6c3f
00000080: 169b 833f 3efc 7a3f 47cb 8a3f 6e69 7d3f
00000090: 6c33 773f b7a0 753f d9ac 713f 69d3 783f
000000a0: c234 713f 610d 743f e447 7f3f 6585 7e3f
000000b0: a410 753f 2b05 8b3f feb9 823f 4a8a 7d3f
000000c0: b302 6b3f 141d 793f d9cd 823f dbbc 823f
000000d0: 0316 7d3f d24b 783f 9043 7c3f d02f 803f
000000e0: 0471 7f3f 5be7 6b3f f2bf 7d3f bb11 793f
000000f0: c81b 823f baf6 7f3f a3ef 7c3f 7821 7c3f

encoder.block1.point_wise_up.1.bias f4 [64]
-0.0018855998 0.021927273 0.013218608 0.0890211 -0.0037129514 -0.0031984453 0.017087372 0.026371013
0.007983249 0.03065004 0.048886735 0.02874191 -0.015194643 0.018472102 -0.010725085 -0.010501689
-0.0043283957 0.063795045 0.015295036 0.08933694 -0.04716973 -0.0038009537 0.016252313 0.007874327
0.04103307 0.00518191 -0.004754719 0.01536847 -0.0042134686 0.0053842943 0.06266756 0.017556153
0.010134345 0.003819985 0.0062995753 0.01294231 0.07265007 0.0106722675 0.030136926 -0.025454221
0.014171815 0.017195469 0.0008749404 -0.010560195 0.01762114 0.02620125 -0.013028004 -0.0034872608
0.04203386 0.02223366 -0.0066627385 0.016215337 0.02290196 0.013941168 0.008995984 -0.014864132
0.04119534 0.07333398 0.03831057 0.0151239 0.011659589 0.005279682 0.011141732 -0.033446513
00000000: 3b26 f7ba d3a0 b33c dc92 583c b250 b63d
00000010: fd54 73bb 029d 51bb d1fa 8b3c 0608 d83c
00000020: 2ccc 023c cb15 fb3c 753d 483d 2774 eb3c
00000030: f4f2 78bc ce52 973c 44b8 2fbc 470f 2cbc
00000040: 37d5 8dbb faa6 823d 0898 7a3c 49f6 b63d
00000050: 0c35 41bd 6c19 79bb 9223 853c 5203 013c
00000060: 4b12 283d 03cd a93b 79cd 9bbb 09cc 7b3c
00000070: 2311 8abb bc6e b03b da57 803d ecd1 8f3c
00000080: 860a 263c b758 7a3b ab6c ce3b fc0b 543c
00000090: 8fc9 943d bcda 2e3c b7e1 f63c 5f85 d0bc
000000a0: e630 683c 83dd 8c3c 425c 653a ab04 2dbc
000000b0: 365a 903c 01a4 d63c 6973 55bc 878a 64bb
000000c0: b22b 2c3d 5d23 b63c 1a53 dabb 07d6 843c
000000d0: e49c bb3c 7f69 643c e463 133c b088 73bc
000000e0: 72bc 283d 2030 963d 8beb 1c3d 3cca 773c
000000f0: dc07 3f3c 2f01 ad3b d08b 363c 36ff 08bd

encoder.block1.point_wise_up.1.running_mean f4 [64]
-0.05072154 0.047380093 -0.05106114 -0.1575218 -0.035390344 -0.04200335 -0.09364377 -0.18688345
0.12390209 -0.053521108 -0.032533888 -0.036122795 -0.017753525 -0.1130763 -0.09280963 0.011237569
0.09842776 -0.259558 0.09271524 -0.00039239565 0.04915316 -0.18304224 -0.036897745 -0.18126063
0.10279305 0.022825545 -0.0055844933 -0.3244356 -0.05345546 -0.03506449 0.051350128 0.033605285
0.29184574 0.045821253 0.17393857 0.13567434 0.013591554 0.048895877 0.006175633 0.015579401
0.059788745 0.1816097 0.2708533 -0.093605354 -0.081962444 0.009194286 -0.104437776 -0.10906683
-0.0426571 0.068406425 -0.071395524 -0.07099751 -0.15147914 0.006524897 0.16503258 -0.17051873
0.15267839 -0.16712911 -0.0047327564 -0.114983514 -0.011500456 0.12456172 -0.16066565 0.15266456
00000000: 64c1 4fbd a111 423d 7c25 51bd 654d 21be
00000010: 77f5 10bd b40b 2cbd 4ec8 bfbd 605e 3fbe
00000020: 61c0 fd3d f338 5bbd 4142 05bd 7ff5 13bd
00000030: d76f 91bc 8c94 e7bd fa12 bebd c81d 383c
00000040: 7e94 c93d c9e4 84be 7de1 bd3d 74ba cdb9
00000050: d354 493d 6d6f 3bbe 1722 17bd 639c 39be
00000060: 2a85 d23d a3fc ba3c 20fe b6bb 6c1c a6be
00000070: 1df4 5abd c89f 0fbd 8354 523d b2a5 093d
00000080: ce6c 953e 11af 3b3d f41c 323e 37ee 0a3e
00000090: 1caf 5e3c 0b47 483d f75c ca3b be40 7f3c
000000a0: 0be5 743d e5f7 393e 49ad 8a3e 2ab4 bfbd
000000b0: eddb a7bd a1a3 163c 79e3 d5bd 6e5e dfbd
000000c0: 36b9 2ebd ab18 8c3d d137 92bd 2467 91bd
000000d0: 591d 1bbe cece d53b 4dfe 283e 769c 2ebe
000000e0: b957 1c3e e523 2bbe 3d15 9bbb 7a7c ebbd
000000f0: 696c 3cbc 371a ff3d 8985 24be 1954 1c3e

encoder.block1.point_wise_up.1.running_var f4 [64]
0.00024393789 0.0009574687 0.000559355 0.003949473 0.002595858 0.00022647256 0.0006823298 0.003232854
0.0049287365 0.000233376 0.0023504365 0.00072782196 0.00034746545 0.0014530192 0.0013298553 0.0011794964
0.001335682 0.006986717 0.0009970985 0.0023997484 0.0012019196 0.0013611704 0.00023140313 0.005706942
0.0011926063 0.0011730187 0.0007091821 0.0038706083 0.0012348683 0.0005800452 0.00069722824 0.00021909436
0.004690863 0.0012855357 0.0018924162 0.0067618177 0.0015742409 0.00032844997 0.0018277955 0.0022904682
0.0001683813 0.0017583981 0.0033671306 0.00087624294 0.00078131043 0.0006514395 0.0009439773 0.0012507483
0.0019996078 0.0005920753 0.0010573028 0.0013821009 0.0020280501 0.00033130095 0.0022777251 0.0055082003
0.0006606637 0.0032113264 0.000583683 0.0032425798 0.00073863514 0.000884358 0.0005360127 0.00062295236
00000000: 94c9 7f39 a3fe 7a3a aea1 123a 956a 813b
00000010: 451f 2a3b 4479 6d39 61de 323a 4ade 533b
00000020: 3d81 a13b 65b6 7439 c809 1a3b 4ecb 3e3a
00000030: 062c b639 3c73 be3a 8a4e ae3a 5599 9a3a
00000040: 0d12 af3a d5f0 e43b 13b1 823a 1945 1d3b
00000050: bb89 9d3a 4d69 b23a cea4 7239 4d01 bb3b
00000060: 3a51 9c3a fabf 993a 68e8 393a 08aa 7d3b
00000070: 4edb a13a 2d0e 183a 32c6 363a b2bc 6539
00000080: d0b5 993b 6c7f a83a f30a f83a 3d92 dd3b
00000090: c256 ce3a cf33 ac39 a492 ef3a ae1b 163b
000000a0: 838f 3039 0d7a e63a 14ab 5c3b abb3 653a
000000b0: dbd0 4c3a 5dc5 2a3a 3f75 773a 26f0 a33a
000000c0: da0b 033b 8035 1b3a 3295 8a3a 9c27 b53a
000000d0: 09e9 043b 76b2 ad39 e345 153b 227e b43b
000000e0: 6430 2d3a 1e75 523b 4e02 193a 7681 543b
000000f0: f7a0 413a 43d4 673a 3483 0c3a a04d 233a

encoder.block1.depth_wise.0.weight f4 [64, 1, 3, 3]
0.034630667 -0.28666148 -0.20594625 -0.31672716 -0.13757126 -0.22297864 0.2545338 0.14554857
0.26560575 -0.24380185 -0.1032237 0.33577394 -0.27407858 -0.1073668 0.14514174 0.30945343
0.03177558 -0.049168028 0.090122886 0.3525946 0.29677412 -0.1946041 0.0279417 0.14418484
0.2573213 0.1390825 0.08380278 -0.18313695 -0.08784464 -0.32647136 0.014381133 -0.11077354
-0.07159472 0.18002756 0.29323375 0.28044456 -0.030952146 -0.337875 -0.20897594 -0.17816736
-0.2508296 -0.32589307 -0.08216804 0.24776669 0.24957901 -0.117254876 -0.22148632 -0.12435358
-0.28708205 -0.28336647 -0.1615151 0.2866313 0.20884182 0.21808985 0.27650258 0.35751367
-0.03899719 -0.113073446 0.31234038 -0.16621476 -0.29893327 0.06481948 -0.18550742 0.17969503
0.07674138 -0.03615202 0.20564723 -0.1664278 -0.3031366 -0.0067706145 -0.07531591 0.14528027
-0.23041978 -0.15670222 -0.31151062 0.05878149 0.25221944 -0.0018394873 0.2335568 -0.29732233
-0.27533504 -0.16710614 -0.13136399 -0.027812755 0.14337598 0.15702406 0.3209748 -0.07172965
0.053207606 0.30079 -0.05898461 0.058764752 -0.2869492 0.042986233 -0.087803766 -0.019726155
-0.2683822 -0.12912454 0.30190164 0.09848486 0.06374704 0.23521309 -0.14656693 -0.17599802
0.21170774 -0.0956481 -0.124089845 -0.014905626 -0.028132467 -0.02497622 -0.017984167 0.10663786
-0.29124874 -0.2498324 -0.2085588 -0.053183112 0.10766034 0.12730159 -0.2767925 -0.14741513
-0.2820276 0.18172054 -0.1492859 0.107485615 0.2834341 0.30048853 -0.12977646 -0.04794777
0.12101242 -0.21038273 0.2291059 -0.07120984 -0.015529405 0.23768696 0.27757335 -0.022513425
0.27211314 0.030782975 0.30322924 0.09704914 -0.044804797 -0.0849766 0.22171244 -0.20511362
0.23669542 -0.011288644 0.31538922 0.054922257 0.062701724 -0.22015977 -0.1870266 -0.08928215
-0.32135552 0.17513782 0.0068719233 -0.21815437 0.09218067 0.19147412 -0.29064277 0.16868766
-0.10210747 -0.01816332 -0.085410684 -0.3290442 0.26894245 -0.06574481 0.2266089 0.082096145
-0.3256915 0.12571855 -0.23966838 -0.24312998 -0.046276104 0.29220167 0.21356322 -0.28374606
0.21360403 -0.28961843 -0.026632626 0.16430531 0.24260812 0.13528875 -0.22610594 0.24625786
0.33126315 0.2858562 -0.059304144 -0.26442263 -0.13237421 -0.14907847 0.047462992 0.10022759
-0.096927755 0.16381438 0.06193215 0.27416426 -0.108827576 -0.08643371 0.27870435 0.12777312
0.058244836 -0.14668955 -0.0446705 0.0032845256 0.34079576 0.24233223 0.019409366 0.22621682
-0.27426967 0.0006965675 0.1341899 0.24334039 0.21210328 -0.13663164 -0.20867848 -0.20373574
-0.005228576 0.0122313 0.173853 -0.26389983 0.24917002 -0.0006444856 0.07617407 0.02116112
0.06903046 -0.23690286 0.07648136 -0.030472927 0.012555447 0.28747284 -0.25653756 -0.31536034
0.2888911 -0.26576346 -0.2904758 0.16524984 0.114271395 0.2747559 0.01691938 0.27987885
-0.2774508 -0.18536238 -0.14857623 0.05042605 0.09259251 0.17447904 -0.30417457 0.13320105
0.035567466 -0.12814772 -0.08897685 0.112451404 -0.031242238 0.0067670457 0.058709573 0.29575446
00000000: e3d8 0d3d 4bc5 92be 93e3 52be 102a a2be
00000010: 7bdf 0cbe 8354 64be 4152 823e af0a 153e
00000020: 7afd 873e 31a7 79be f266 d3bd 90ea ab3e
00000030: 0754 8cbe 20e3 dbbd 09a0 143e ae70 9e3e
00000040: 1c27 023d 6a64 49bd 5992 b83d 4887 b43e
00000050: c7f2 973e 4c46 47be fee5 e43c 31a5 133e
00000060: 9ebf 833e a56b 0e3e cba0 ab3d 4188 3bbe
00000070: e4e7 b3bd 4127 a7be d89e 6b3c 3ddd e2bd
00000080: 41a0 92bd 2559 383e bc22 963e 6e96 8f3e
00000090: 5b8f fdbc f4fd acbe cafd 55be 8171 36be
000000a0: bd6c 80be 75db a6be b847 a8bd 8db6 7d3e
000000b0: a491 7f3e 5323 f0bd 4fcd 62be 17ad febd
000000c0: 6bfc 92be 6915 91be 3764 25be 56c1 923e
000000d0: a1da 553e f252 5f3e bf91 8d3e 080c b73e
000000e0: 84bb 1fbd 0d93 e7bd 14eb 9f3e 3434 2abe
000000f0: c80d 99be 13c0 843d a8f5 3dbe f901 383e
00000100: 962a 9d3d 2414 14bd 3095 523e 0d6c 2abe
00000110: b834 9bbe 08dc ddbb 3a3f 9abd 5ac4 143e
00000120: 2af3 6bbe 8c76 20be 527e 9fbe dcc4 703d
00000130: e822 813e f41a f1ba 8429 6f3e a23a 98be
00000140: b7f8 8cbe df1d 2bbe 4884 06be 93d7 e3bc
00000150: 27d1 123e eaca 203e cf56 a43e ffe6 92bd
00000160: 38f0 593d 2601 9a3e d999 71bd 4fb3 703d
00000170: 01eb 92be 5512 303d 76d2 b3bd bf98 a1bc
00000180: 6469 89be 3939 04be da92 9a3e 6eb2 c93d
00000190: cf8d 823d b3db 703e a415 16be d338 34be
000001a0: eac9 583e 27e3 c3bd d122 febd ba36 74bc
000001b0: 0f76 e6bc ee9a ccbc 8853 93bc f364 da3d
000001c0: 8e1e 95be 11d4 7fbe 7090 55be 89d6 59bd
000001d0: 067d dc3d 595b 023e bfb7 8dbe fef3 16be
000001e0: ec65 90be f314 3a3e 67de 18be 6b21 dc3d
000001f0: 461e 913e a2d9 993e 1fe4 04be e264 44bd
00000200: 5cd5 f73d 926e 57be bd9a 6a3e 77d6 91bd
00000210: 0c6f 7ebc 3664 733e 181e 8e3e 136e b8bc
00000220: 6a52 8b3e 942c fc3c dd40 9b3e b3c1 c63d
00000230: 3c85 37bd 3608 aebd 9608 633e 4e09 52be
00000240: 4960 723e 01f4 38bc b27a a13e 29f6 603d
00000250: c369 803d 9071 61be e783 3fbe 8fd9 b6bd
00000260: b688 a4be 5457 333e df2d e13b dc63 5fbe
00000270: 38c9 bc3d cb11 443e 21cf 94be 75bc 2c3e
00000280: b91d d1bd 3ecb 94bc cceb aebd 7b78 a8be
00000290: d3b2 893e 37a5 86bd 2a0c 683e 0622 a83d
000002a0: 09c1 a6be 5dbc 003e a16b 75be 11f7 78be
000002b0: 038c 3dbd 759b 953e 51b0 5a3e 2a47 91be
000002c0: 04bb 5a3e de48 94be aa2c dabc a73f 283e
000002d0: 436e 783e 2289 0a3e 5188 67be 052b 7c3e
000002e0: 539b a93e be5b 923e e7e8 72bd 6762 87be
000002f0: 1b8d 07be 07a8 18be 8e68 423d 1f44 cd3d
00000300: 0f82 c6bd f5be 273e 91ac 7d3d 425f 8c3e
00000310: fee0 debd 2804 b1bd 56b2 8e3e f5d6 023e
00000320: 2392 6e3d c935 16be 6af8 36bd 3241 573b
00000330: c87c ae3e f125 783e 6400 9f3c 62a5 673e
00000340: 136d 8cbe db99 363a 1469 093e 392e 793e
00000350: 9a31 593e 2ae9 0bbe d0af 55be 1aa0 50be
00000360: 7954 abbb ca65 483c 8506 323e e11d 87be
00000370: 6d26 7f3e b2f2 28ba 2701 9c3d 165a ad3c
00000380: d85f 8d3d aa96 72be 42a2 9c3d 5ca2 f9bc
00000390: 5db5 4d3c a42f 933e e458 83be e976 a1be
000003a0: 89e9 933e 2612 88be 3eb9 94be 4137 293e
000003b0: 1f07 ea3d ceac 8c3e 839a 8a3c 484c 8f3e
000003c0: 080e 8ebe a3cf 3dbe 5e24 18be 8c8b 4e3d
000003d0: 24a1 bd3d a2aa 323e c5bc 9bbe db65 083e
000003e0: 31af 113d 2839 03be 7f39 b6bd ec4c e63d
000003f0: b9ef ffbc 18be dd3b 7379 703d 216d 973e

encoder.block1.depth_wise.1.weight f4 [64]
1.0077007 1.009496 0.9921575 1.0719562 0.9678754 0.9360681 1.0442249 0.97109985
0.99005723 1.0403156 0.97559917 0.96825933 1.0110615 0.927788 1.0343482 0.98076755
0.96894836 0.9955056 0.9773417 0.99861336 0.95491177 0.93919396 0.97017854 0.9293186
0.97701144 0.9787982 0.914109 0.98358256 1.027628 0.9673328 0.96496433 0.93637604
0.9753235 0.98210675 0.98242116 1.0040677 1.0102061 1.0013696 0.99830604 0.9762298
0.9642715 0.9493975 0.97172505 0.9988311 1.0407311 1.0010076 0.9299844 0.97893435
0.9497664 1.0094073 1.0555282 0.9773605 1.1038588 0.9696362 1.0661844 0.98604393
0.9766163 0.9655187 1.0087024 0.9818437 1.0393926 0.9811088 1.0359486 0.92309284
00000000: 56fc 803f 2a37 813f 09fe 7d3f dc35 893f
00000010: afc6 773f 29a2 6f3f 29a9 853f 009a 783f
00000020: 6474 7d3f 1029 853f dec0 793f d8df 773f
00000030: 776a 813f 8483 6d3f 8665 843f 9513 7b3f
00000040: 000d 783f 74d9 7e3f 1133 7a3f 20a5 7f3f
00000050: 1975 743f 046f 703f 9f5d 783f d3e7 6d3f
00000060: 6c1d 7a3f 8592 7a3f 0c03 6a3f 11cc 7b3f
00000070: 5089 833f 1fa3 773f e707 773f 57b6 6f3f
00000080: cdae 793f 596b 7b3f f47f 7b3f 4a85 803f
00000090: 6f4e 813f e12c 803f fc90 7f3f 32ea 793f
000000a0: 7fda 763f b70b 733f f9c2 783f 65b3 7f3f
000000b0: ad36 853f 0421 803f 7513 6e3f 719b 7a3f
000000c0: e423 733f 4234 813f 8c1b 873f 4c34 7a3f
000000d0: 3f4b 8d3f 143a 783f bb78 883f 606d 7c3f
000000e0: 8703 7a3f 3c2c 773f 291d 813f 1c5a 7b3f
000000f0: d10a 853f f229 7b3f f799 843f d04f 6c3f

encoder.block1.depth_wise.1.bias f4 [64]
0.024312526 0.062632896 0.0054033166 -0.0054218355 -0.008923531 -0.010810712 0.065665096 -0.012769006
-0.009240623 0.028206289 -0.009252704 0.0052989717 0.01206548 0.0012800583 0.025541285 0.0024107993
-0.01916377 -0.025586218 0.032870565 0.014505427 -0.006025681 -0.025095893 0.003516966 -0.06908129
-0.017775135 -0.022395164 -0.0035038588 -0.021025727 0.027475808 -0.013152915 -0.044597875 0.011849836
-0.0015470904 -0.023318928 -0.016934585 -0.01586004 -0.019417396 0.0014459837 -0.01714733 -0.00026621856
-0.0006981037 -0.012541344 -0.027526537 -0.020715712 0.034351986 0.013823414 -0.0017728403 0.008851077
-0.018722076 0.01412179 0.012045265 -0.030476812 0.04819144 0.00724339 0.10015315 -0.0074465554
0.018560084 -0.014582924 0.0072219055 -0.039263513 0.012243597 0.00056386646 0.015251903 -0.047652505
00000000: 102b c73c ad45 803d 4e0e b13b a7a9 b1bb
00000010: 0034 12bc 6a1f 31bc 6c7b 863d 1835 51bc
00000020: fb65 17bc e010 e73c a798 17bc ffa2 ad3b
00000030: 4bae 453c a1c7 a73a f53b d13c 80fe 1d3b
00000040: 57fd 9cbc 309a d1bc 49a3 063d 2ca8 6d3c
00000050: 1373 c5bb e795 cdbc e67c 663b 7e7a 8dbd
00000060: 299d 91bc 1076 b7bc ffa0 65bb 253e acbc
00000070: f214 e13c 537f 57bc 43ac 36bd d125 423c
00000080: bdc7 caba 5607 bfbc 66ba 8abc eaec 81bc
00000090: 3b11 9fbc 2987 bd3a 8f78 8cbc 4093 8bb9
000000a0: f200 37ba 367a 4dbc 557f e1bc ffb3 a9bc
000000b0: abb4 0c3d 9a7b 623c a65e e8ba 1c04 113c
000000c0: 0a5f 99bc 155f 673c 8159 453c 82aa f9bc
000000d0: 6364 453d f659 ed3b 181d cd3d 3c02 f4bb
000000e0: 510b 983c 37ed 6ebc bca5 ec3b c7d2 20bd
000000f0: 5e99 483c 70d0 133a 1ee3 793c 462f 43bd

encoder.block1.depth_wise.1.running_mean f4 [64]
-0.17661622 0.01738625 0.452113 -0.008381794 -0.38150296 -0.1471668 0.091134325 0.0031155746
-0.29046223 0.19234575 -0.19117689 0.020655109 -0.23398656 0.058992736 0.15696985 0.21400642
-0.061848182 0.0015094263 -0.13160354 -0.0071659302 0.19367953 0.083380826 0.32498044 -0.0011481112
0.15364388 -0.16303587 -0.018392727 0.030319398 0.24051301 -0.25988623 0.00086631096 0.13006224
0.098927826 -0.13590382 0.14880216 -0.03278443 -0.39787295 -0.41060388 -0.26881483 -0.15073538
0.04823365 0.11892297 -0.049935427 0.1661627 0.2915171 0.68406546 -0.5103497 0.12616016
0.08961975 -0.2550444 0.059388712 -0.46438015 0.130425 0.39890665 -0.44629598 -0.14949526
0.2667255 0.020850422 -0.38481513 -0.08774724 0.06192246 -0.44125995 0.039411422 -0.23831338
00000000: e2da 34be 9c6d 8e3c 5b7b e73e cb53 09bc
00000010: 5b54 c3be e5b2 16be a2a4 ba3d ab2e 4c3b
00000020: 77b7 94be 49f6 443e e0c3 43be e734 a93c
00000030: 2c9a 6fbe 5ea2 713d b4bc 203e 8024 5b3e
00000040: 8554 7dbd f1d7 c53a 14c3 06be 2ed0 eabb
00000050: ed53 463e 91c3 aa3d d663 a63e 387c 96ba
00000060: d254 1d3e e0f2 26be 58ac 96bc 6360 f83c
00000070: 0b49 763e cf0f 85be 2519 633a 092f 053e
00000080: ac9a ca3d 5f2a 0bbe 985f 183e f748 06bd
00000090: 01b6 cbbe ac3a d2be 19a2 89be 605a 1abe
000000a0: a690 453d e38d f33d 1789 4cbd 8e26 2a3e
000000b0: bb41 953e ea1e 2f3f 47a6 02bf 2130 013e
000000c0: 8f8a b73d 2e95 82be 9441 733d 3cc3 edbe
000000d0: 228e 053e 7e3d cc3e e880 e4be 4915 19be
000000e0: 3f90 883e 81ce aa3c 7d06 c5be d3b4 b3bd
000000f0: 68a2 7d3d d3ec e1be df6d 213d 6c08 74be

encoder.block1.depth_wise.1.running_var f4 [64]
0.08935545 0.009413364 0.26785934 0.018469349 0.29275957 0.049251135 0.09589071 0.006673959
0.17434959 0.1777704 0.069131084 0.012455815 0.10054482 0.017722456 0.051606886 0.111684486
0.028420892 0.011338608 0.042076506 0.013171794 0.0965762 0.014625325 0.22548658 0.020401489
0.04812519 0.096260965 0.07317478 0.011616755 0.105617106 0.11865902 0.015099801 0.13121833
0.02457171 0.052174006 0.054325055 0.0062062764 0.316811 0.25535837 0.10155804 0.057096954
0.038829103 0.04192999 0.019880855 0.0681255 0.16608137 0.87566537 0.40872258 0.034270372
0.024494538 0.117779516 0.015438934 0.32714784 0.027364703 0.27987474 0.40322447 0.0523029
0.18543798 0.009885789 0.26560703 0.025918487 0.013233931 0.3375933 0.010335336 0.117010094
00000000: fdff b63d 833a 1a3c dc24 893e 084d 973c
00000010: 95e4 953e 8fbb 493d 5962 c43d 3ab1 da3b
00000020: b388 323e 7209 363e 9994 8d3d 7a13 4c3c
00000030: 71ea cd3d af2e 913c be61 533d d6ba e43d
00000040: eed2 e83c 92c5 393c 6a58 2c3d 82ce 573c
00000050: bec9 c53d 0f9f 6f3c f4e5 663e 0621 a73c
00000060: eb1e 453d 7824 c53d a9dc 953d 3454 3e3c
00000070: c84d d83d 8003 f33d 2865 773c 195e 063e
00000080: 9c4a c93c 69b4 553d f383 5e3d 055e cb3b
00000090: 0d35 a23e 55be 823e a9fd cf3d 7fde 693d
000000a0: 440b 1f3d c8be 2b3d 2ddd a23c 6285 8b3d
000000b0: 3c11 2a3e 9b2b 603f 1644 d13e 175f 0c3d
000000c0: c5a8 c83c 6336 f13d 95f3 7c3c ec7f a73e
000000d0: f12b e03c be4b 8f3e 7073 ce3e 913b 563d
000000e0: 74e3 3d3e 01f8 213c a5fd 873e 0253 d43c
000000f0: 21d3 583c 07d9 ac3e 8b55 293c fda2 ef3d

encoder.block1.point_wise_down.0.weight f4 [32, 64, 1, 1]
-0.06369487 -0.09507184 -0.0596356 -0.110828556 0.03967336 -0.09274612 0.16928597 0.13420646
-0.025088506 -0.08911389 -0.06673853 -0.0030205492 0.08146233 -0.093264036 0.022659285 -0.041212216
0.039166015 0.0050598397 -0.09723091 -0.010726616 -0.05233551 -0.08307076 0.1254165 -0.0053643263
-0.09589128 0.01937738 0.09483267 0.10995568 0.08035127 0.024629317 0.10845415 -0.07857164
-0.020523516 0.06849864 -0.03171729 -0.10762372 0.06518368 -0.070977956 -0.04319873 0.11246884
-0.14231908 9.9692705e-05 0.0953282 -0.093781896 -0.0052141473 0.08539864 -0.04160785 -0.038816977
-0.10123654 -0.11595109 -0.03793349 -0.022496767 0.05937414 0.0020467807 -0.11431803 0.06306367
0.11230889 0.08709019 0.04648671 -0.054087777 0.01640129 0.10440494 0.000950057 -0.025466712
0.10814893 -0.14258671 -0.03641491 -0.052246947 0.02894494 -0.028813047 -0.13922478 0.07212786
-0.041005045 -0.056432914 -0.13142936 0.11556202 -0.115155496 -0.090374604 -0.15855344 0.13710345
-0.0030614554 0.10393724 -0.050349627 0.08406608 0.031802822 0.030242445 0.082780965 0.09635225
-0.046950527 -0.10445605 0.06307125 -0.07774704 -0.003009054 -0.10274028 0.020963395 -0.047723908
0.015936013 -0.08059486 -0.029130641 -0.09143438 -0.037649553 -0.045890782 0.06527 -0.09807999
0.09667345 -0.023351043 0.1043956 -0.047989875 -0.0151746785 -0.066143155 -0.014554957 0.06276155
-0.022272063 -0.02756412 0.034444336 -0.1155236 0.062046807 0.10482658 -0.03751365 0.015599096
-0.07004374 0.08593035 0.033655316 -0.089529864 -0.034209173 -0.015339533 0.04587155 0.09546163
0.076579 0.09318533 -0.063629046 0.10479309 0.05121091 -0.09530689 -0.08170129 -0.074885905
0.05964677 0.05487603 -0.019906793 -0.12210051 -0.09255266 0.0326894 0.00064038177 0.025599796
0.029888269 -0.08376636 -0.03547612 -0.060968336 -0.08566006 -0.10225276 -0.0076733334 0.06693921
0.1085032 -0.047884382 -0.040173154 -0.019699356 0.050008778 0.12931746 -0.06652835 -0.026385078
-0.12272468 0.09964492 -0.12691906 0.090893805 0.061973676 0.12957984 0.037474774 -0.056871098
-0.078216724 -0.026349075 -0.06489862 -0.042195264 -0.033480328 0.05333305 -0.10204983 0.0822207
0.06444566 -0.069739476 -0.07378156 0.040162615 -0.12369253 0.041947506 -0.0014178179 0.07754033
0.10325076 -0.0820495 -0.02397669 0.046723433 -0.17663822 0.077468894 -0.042308267 0.011879119
-0.010966349 -0.0911878 0.0321392 0.08076489 -0.045896117 0.039732736 -0.107453495 0.055596784
-0.08499689 0.09035934 0.04825619 -0.07140784 0.03781448 -0.03857203 0.10960595 -0.058035463
-0.0008023248 0.002567629 -0.0984463 -0.09350016 0.044478994 0.01909405 0.15304142 -0.06594858
0.0141332615 -0.13452914 0.010331101 -0.009721159 0.15754934 -0.007984796 -0.021394223 -0.015775982
-0.072053865 0.021984445 0.106865466 0.048901543 0.014563651 0.039388478 0.10989712 -0.04614907
0.08258528 -0.07885431 0.022378804 0.032086503 -0.05783202 0.10142269 0.06476475 0.12181069
-0.002360016 -0.11363895 0.08901581 0.065690905 0.04169145 -0.0960192 -0.081421554 -0.015118131
0.031860948 -0.027310466 -0.083386235 0.018744797 -0.038912725 0.053826325 -0.00022905885 -0.02566666
00000000: 7572 82bd 06b5 c2bd 7544 74bd 15fa e2bd
00000010: 8880 223d aef1 bdbd 4d59 2d3e 6b6d 093e
00000020: 6986 cdbc 5881 b6bd 36ae 88bd 68f4 45bb
00000030: b9d5 a63d 3701 bfbd f79f b93c 24ce 28bd
00000040: 8b6c 203d 03cd a53b 0021 c7bd b0be 2fbc
00000050: c25d 56bd 0121 aabd 2f6d 003e 3bc7 afbb
00000060: a662 c4bd 50bd 9e3c a237 c23d 7230 e13d
00000070: 358f a43d 6cc3 c93c 361d de3d 2bea a0bd
00000080: ef20 a8bc 0449 8c3d fde9 01bd d369 dcbd
00000090: 057f 853d e45c 91bd 27f1 30bd 1056 e63d
000000a0: 18bc 11be 1d12 d138 6e3b c33d b910 c0bd
000000b0: 70db aabb 7be5 ae3d fe6c 2abd 8dfe 1ebd
000000c0: 1a55 cfbd c477 edbd 2660 1bbd 244b b8bc
000000d0: 4c32 733d 4823 063b 921f eabd 8727 813d
000000e0: 3402 e63d 575c b23d d968 3e3d 258b 5dbd
000000f0: 005c 863c 42d2 d53d 3f0d 793a 919f d0bc
00000100: 307d dd3d 4002 12be cd27 15bd e500 56bd
00000110: f01d ed3c 5709 ecbc f190 0ebe c5b7 933d
00000120: e8f4 27bd 3326 67bd 6b95 06be c8ab ec3d
00000130: a5d6 ebbd 5216 b9bd d55b 22be d964 0c3e
00000140: b3a2 48bb 0cdd d43d 693b 4ebd d62a ac3d
00000150: ad43 023d 01bf f73c 1189 a93d 5454 c53d
00000160: 324f 40bd 0eed d5bd 802b 813d d739 9fbd
00000170: 8d33 45bb 7f69 d2bd 6dbb ab3c 257a 43bd
00000180: 3e8c 823c eb0e a5bd 62a3 eebc f341 bbbd
00000190: 6b36 1abd f9f7 3bbd 47ac 853d 29de c8bd
000001a0: bbfc c53d b04a bfbc 5ccd d53d 0891 44bd
000001b0: 379f 78bc 1076 87bd ea77 6ebc 2189 803d
000001c0: e773 b6bc 26ce e1bc 8115 0d3d a397 ecbd
000001d0: cb24 7e3d 51af d63d eaa7 19bd 5a93 7f3c
000001e0: 1873 8fbd 40fc af3d 28da 093d 6f5b b7bd
000001f0: eb1e 0cbd aa52 7bbc cee3 3b3d 6381 c33d
00000200: 73d5 9c3d f3d7 be3d f24f 82bd c29d d63d
00000210: 88c2 513d 4230 c3bd 0253 a7bd c85d 99bd
00000220: 2c50 743d b0c5 603d 9213 a3bc d50f fabd
00000230: 408c bdbd 52e5 053d 4bdf 273a aab6 d13c
00000240: 3ed8 f43c b38d abbd 684f 11bd efb9 79bd
00000250: 8b6e afbd e569 d1bd 9670 fbbb 6d17 893d
00000260: ed36 de3d 6a22 44bd 9b8c 24bd 8b60 a1bc
00000270: 01d6 4c3d cc6b 043e 0440 88bd 8525 d8bc
00000280: 1457 fbbd a312 cc3d 12f7 01be 8826 ba3d
00000290: 1cd8 7d3d 94b0 043e 267f 193d abf1 68bd
000002a0: 1730 a0bd 04da d7bc 91e9 84bd f1d4 2cbd
000002b0: ab22 09bd c273 5a3d 80ff d0bd 5463 a83d
000002c0: 16fc 833d 92d3 8ebd c91a 97bd 8e81 243d
000002d0: 8252 fdbd 26d1 2b3d 13d6 b9ba 77cd 9e3d
000002e0: 2275 d33d 9109 a8bd c36a c4bc 1261 3f3d
000002f0: a6e0 34be 03a8 9e3d 6f4b 2dbd a3a0 423c
00000300: 34ac 33bc abc0 babd 65a4 033d 1068 a53d
00000310: 91fd 3bbd cbbe 223d 9410 dcbd 74b9 633d
00000320: d912 aebd 510e b93d 48a8 453d 463e 92bd
00000330: 5be3 1a3d b4fd 1dbd 1679 e03d 98b6 6dbd
00000340: 1b53 52ba ab45 283b 379e c9bd 037d bfbd
00000350: 9b2f 363d 206b 9c3c e4b6 1c3e 0d10 87bd
00000360: 328f 673c 02c2 09be c743 293c 7f45 1fbc
00000370: 9d54 213e a9d2 02bc f042 afbc a23c 81bc
00000380: fa90 93bd b918 b43c 48dc da3d fc4c 483d
00000390: 619c 6e3c d055 213d be11 e13d cf06 3dbd
000003a0: 7922 a93d 5e7e a1bd c153 b73c 236d 033d
000003b0: 45e1 6cbd b3b6 cf3d 62a3 843d e277 f93d
000003c0: 80aa 1abb 8abb e8bd ec4d b63d f488 863d
000003d0: a7c4 2a3d b7a5 c4bd 58c0 a6bd 0ab2 77bc
000003e0: a080 023d 33ba dfbc 67c6 aabd b08e 993c
000003f0: f362 1fbd fe78 5c3d 842f 70b9 e342 d2bc

encoder.block1.point_wise_down.1.weight f4 [32]
0.9710807 1.0108652 0.99830717 0.9851012 1.0225238 0.9580905 0.97639847 1.0039202
0.99326974 0.96205235 0.99523216 1.0034707 0.9858695 0.99529195 0.9666669 1.0143199
0.949067 0.95688987 0.99755025 0.95418394 1.0129912 0.9914265 0.9036249 0.98550713
0.97221184 0.9789824 0.95910597 1.013587 1.0114273 1.0013988 0.95709914 1.0065187
00000000: bf98 783f 0864 813f 0f91 7f3f 982f 7c3f
00000010: 0fe2 823f 6b45 753f 40f5 793f 7580 803f
00000020: ed46 7e3f 1049 763f 89c7 7e3f ba71 803f
00000030: f261 7c3f 74cb 7e3f 7b77 773f 3cd5 813f
00000040: 0ef6 723f bcf6 743f 745f 7f3f 6645 743f
00000050: b2a9 813f 21ce 7d3f f653 673f 324a 7c3f
00000060: e0e2 783f 979e 7a3f f887 753f 38bd 813f
00000070: 7376 813f d62d 803f 7304 753f 9bd5 803f

encoder.block1.point_wise_down.1.bias f4 [32]
-0.082998596 -0.098402046 -0.060418382 0.010375464 -0.08259325 -0.07338989 0.052819986 -0.08375931
0.019234333 -0.1129724 -0.05884338 -0.079052284 -0.009827446 0.052571684 -0.092580326 -0.0029849224
0.020659482 0.016077774 0.052981507 0.023285018 -0.035826392 0.011873594 0.00060574687 0.05323439
-0.0860795 0.033691384 0.046871766 -0.01967034 -0.05425181 -0.053036034 -0.079071924 0.059004713
00000000: 2bfb a9bd 0387 c9bd 4479 77bd dafd 293c
00000010: a626 a9bd 704d 96bd c559 583d 008a abbd
00000020: 5291 9d3c 135e e7bd c205 71bd 2ae6 a1bd
00000030: 4c03 21bc 6855 573d c19a bdbd b09e 43bb
00000040: 133e a93c 89b5 833c 2303 593d 39c0 be3c
00000050: b2be 12bd 7689 423c fcca 1e3a 4e0c 5a3d
00000060: 734a b0bd faff 093d 9cfc 3f3d b123 a1bc
00000070: 2537 5ebd 503c 59bd 76f0 a1bd edae 713d

encoder.block1.point_wise_down.1.running_mean f4 [32]
-0.14512435 -0.30333394 -0.12769148 0.13077767 0.0755999 -0.2604318 0.034940854 0.11234177
0.0136029 0.25474006 0.25159648 -0.024863457 0.055355832 -0.39009735 -0.0059208325 0.05028105
-0.10976214 -0.0477207 0.04453725 -0.063555054 0.30093995 0.3238 -0.06258634 -0.25058115
0.010956916 0.3873816 -0.20055348 0.24125265 0.1658314 -0.69931895 0.6242267 0.1998997
00000000: 7a9b 14be 964e 9bbe 8ec1 02be 95ea 053e
00000010: 1fd4 9a3d 5157 85be 241e 0f3d 7113 e63d
00000020: b3de 5e3c 4a6d 823e 41d1 803e 73ae cbbc
00000030: ccbc 623d d7ba c7be 8b03 c2bb 81f3 4d3d
00000040: f9ca e0bd c876 43bd b16c 363d 2729 82bd
00000050: cd14 9a3e 1dc9 a53e 442d 80bd 2c4c 80be
00000060: a384 333c e256 c63e e45d 4dbe ef0a 773e
00000070: b5cf 293e 9106 33bf 52cd 1f3f 82b2 4c3e

encoder.block1.point_wise_down.1.running_var f4 [32]
0.18965481 0.23406065 0.22466992 0.17225517 0.31475884 0.24264339 0.30678818 0.14351955
0.2114334 0.2537804 0.31784976 0.26524472 0.20843059 0.15794949 0.118773945 0.22027574
0.17822658 0.29745665 0.4052819 0.106345125 0.32214338 0.2618938 0.15026595 0.16857786
0.19498138 0.08882205 0.1780893 0.14298455 0.20187534 0.19912662 0.33685815 0.21879613
00000000: df34 423e 98ad 6f3e df0f 663e a963 303e
00000010: 1228 a13e 8277 783e 5713 9d3e caf6 123e
00000020: ff81 583e 81ef 813e 34bd a23e 28ce 873e
00000030: d46e 553e 83bd 213e c13f f33d f78f 613e
00000040: 0781 363e 3d4c 983e 1c81 cf3e 79cb d93d
00000050: faef a43e f216 863e 51df 193e ad9f 2c3e
00000060: 33a9 473e 56e8 b53d 0b5d 363e 8b6a 123e
00000070: 69b8 4e3e d9e7 4b3e ac78 ac3e 180c 603e

encoder.block2.point_wise_up.0.weight f4 [64, 32, 1, 1]
-0.09489435 -0.028150583 -0.00013143296 0.17458287 -0.07267263 -0.07896701 0.09227882 -0.014663403
-0.11439417 -0.12559137 -0.04636631 0.012628898 0.009719076 0.09021624 0.09327425 -0.069142826
0.18597735 -0.14460932 0.13188583 -0.15964156 -0.12116104 -0.006476493 0.06696537 -0.017968621
-0.12797935 0.00130112 0.012941214 0.031584594 -0.0473056 -0.04987889 0.15635529 0.10244557
0.020598883 -0.041593663 0.19554265 -0.04377477 -0.08280867 0.11941489 -0.18480332 0.15014258
0.07444636 0.12089741 0.15682968 0.060439568 -0.14560726 0.1397157 0.05813464 0.10039118
0.14592254 0.09461553 -0.16747627 0.0627348 0.037752002 -0.11845978 0.13610786 0.10193064
-0.06293688 0.12630565 -0.0019734288 0.015719319 -0.0820414 0.17680727 0.1158239 -0.035325676
0.07537797 -0.08532269 0.012082282 -0.18711208 -0.054890845 0.12597694 0.043813735 -0.015951978
-0.10348765 -0.14174527 -0.046001773 0.05779767 -0.05307496 -0.17406176 -0.116777 -0.16206563
0.121013135 -0.1616468 -0.05131602 -0.19295761 0.13375232 -0.05586705 -0.1811201 0.014763856
0.05500343 0.085218616 0.08883566 0.085445926 0.051839888 0.012390198 0.14568567 0.047787968
0.01914799 0.09407348 0.06989636 0.12745312 -0.054296736 0.0023297635 0.08481992 -0.12269551
-0.05882612 -0.039965488 0.088418216 -0.08024071 0.09435945 0.1605746 0.17584594 0.07269069
0.012234597 -0.14839846 0.054700267 -0.13873042 -0.1718563 0.1587286 -0.0950032 -0.0919771
0.17642863 -0.19400503 0.08829756 -0.085892335 -0.11751498 0.021346623 -0.12133137 0.16327325
-0.17517996 -0.008023569 -0.0480484 -0.061093174 0.12900864 -0.06717888 -0.050833017 0.10571178
0.024414578 -0.17460229 -0.12103979 -0.15933251 -0.13843016 0.017430974 -0.009465229 -0.069308124
0.07586317 -0.09989085 0.01984293 -0.028531568 0.13980334 -0.06721084 0.09873129 0.123093806
0.13212506 0.17017934 -0.10041047 -0.043095775 -0.058237463 -0.11734567 -0.111724354 -0.037923757
-0.15849848 0.014004507 0.102044255 -0.17477046 -0.13337417 0.059869573 0.04231241 -0.010179687
-0.14291897 -0.08810417 -0.14153442 -0.018206973 -0.09419335 0.115792476 -0.041690283 -0.027294725
0.1639328 -0.18345277 -0.018732611 0.21356584 -0.07005344 0.110647656 0.038130388 0.08488432
0.029432552 -0.12977085 -0.09771513 -0.16373803 -0.15446109 0.038255896 0.055064432 -0.041291136
-0.20650783 -0.075201124 -0.04902731 -0.061459795 0.04109962 0.013665934 0.0028415448 0.10952411
-0.06851208 0.06616521 0.12551683 0.030827148 -0.06421496 -0.1485995 0.122196056 -0.0016623454
0.009224139 -0.043041952 -0.14056982 0.080407016 -0.014134881 -0.12744068 0.16122259 0.111354254
0.1237387 -0.15084292 -0.15131424 0.028001195 0.09488594 0.12386169 -0.11791686 -0.07807096
0.023530692 0.047254406 0.0042715394 0.103492655 0.037346248 -0.1798614 0.1442835 0.019690441
-0.05893799 -0.12814198 -0.15065256 0.1345449 -0.088807665 -0.01966788 -0.042477325 -0.07942619
0.05793072 0.07702839 -0.070595376 0.028592296 0.03875186 -0.086785875 0.21020876 -0.1537072
0.013620197 -0.115725614 0.12482026 0.121352784 -0.116924755 0.10550612 -0.13396908 0.1198931
00000000: f857 c2bd 0d9c e6bc 44d1 09b9 dac5 323e
00000010: 63d5 94bd 75b9 a1bd aefc bc3d c53e 70bc
00000020: 7e47 eabd 069b 00be 9aea 3dbd 70e9 4e3c
00000030: c23c 1f3c 4bc3 b83d 9206 bf3d c19a 8dbd
00000040: d970 3e3e 7714 14be 140d 073e 1479 23be
00000050: 4823 f8bd c338 d4bb 2425 893d ee32 93bc
00000060: 050d 03be 588a aa3a 6307 543c d95e 013d
00000070: 84c3 41bd cf4d 4cbd 9a1b 203e fcce d13d
00000080: fdbe a83c 1e5e 2abd 553c 483e 2c4d 33bd
00000090: 9897 a9bd cb8f f43d 153d 3dbe fabe 193e
000000a0: 5577 983d 1099 f73d f697 203e 7b8f 773d
000000b0: 121a 15be a211 0f3e 971e 6e3d e499 cd3d
000000c0: b86c 153e c9c5 c13d e67e 2bbe 1a7b 803d
000000d0: d8a1 1a3d 0b9b f2bd dc5f 0b3e 03c1 d03d
000000e0: 0de5 80bd 4556 013e a454 01bb cdc5 803c
000000f0: 5205 a8bd f70c 353e 1535 ed3d a8b1 10bd
00000100: c45f 9a3d aabd aebd c4f4 453c 4f9a 3fbe
00000110: 39d5 60bd 1900 013e 0876 333d b9ad 82bc
00000120: 55f1 d3bd ac25 11be 5b6c 3cbd 40bd 6c3d
00000130: 2165 59bd 3f3d 32be c828 efbd 88f4 25be
00000140: bcd5 f73d bd86 25be bf30 52bd ae96 45be
00000150: 5ef6 083e d9d4 64bd 8c77 39be 1ae4 713c
00000160: 474b 613d 1987 ae3d 78ef b53d 46fe ae3d
00000170: 1056 543d 4200 4b3c a02e 153e 51bd 433d
00000180: 3fdc 9c3c 99a9 c03d d325 8f3d 1283 023e
00000190: 4166 5ebd f2ae 183b 11b6 ad3d c947 fbbd
000001a0: a8f3 70bd dab2 23bd 9c14 b53d 3e55 a4bd
000001b0: 873f c13d ab6d 243e f510 343e dbde 943d
000001c0: 9e73 483c c4f5 17be 630d 603d 590f 0ebe
000001d0: 19fb 2fbe c089 223e 0a91 c2bd 7d5e bcbd
000001e0: b5a9 343e 41a9 46be 5ad5 b43d 52e8 afbd
000001f0: b2ab f0bd 1ddf ae3c 957c f8bd 1a31 273e
00000200: 6062 33be 4a75 03bc 66ce 44bd d63c 7abd
00000210: d71a 043e 1595 89bd 4836 50bd 6b7f d83d
00000220: 1501 c83c f1ca 32be b6e3 f7bd 1028 23be
00000230: a3c0 0dbe 67cb 8e3c 0c14 1bbc 6bf1 8dbd
00000240: 265e 9b3d 9393 ccbd a48d a23c 09bb e9bc
00000250: 9b28 0f3e d6a5 89bd a133 ca3d 9b18 fc3d
00000260: cb4b 073e 7e43 2e3e 01a4 cdbd 3285 30bd
00000270: 688a 6ebd ed52 f0bd bdcf e4bd f155 1bbd
00000280: 6d4d 22be 2973 653c 94fc d03d 07f7 32be
00000290: 3d93 08be cc39 753d c74f 2d3d b4c8 26bc
000002a0: 5a59 12be f66f b4bd 66ee 10be ca26 95bc
000002b0: 71e8 c0bd 9b24 ed3d 6ec3 2abd 3099 dfbc
000002c0: 00de 273e 0bdb 3bbe 2275 99bc 01b1 5a3e
000002d0: 2e78 8fbd 3d9b e23d 9c2e 1c3d d5d7 ad3d
000002e0: 891c f13c a6e2 04be df1e c8bd f1aa 27be
000002f0: 0c2b 1ebe 37b2 1c3d 3e8b 613d e520 29bd
00000300: ca76 53be 0c03 9abd dcd0 48bd 44bd 7bbd
00000310: 1358 283d 15e7 5f3c 3639 3a3b 2d4e e03d
00000320: 1050 8cbd a081 873d 7c87 003e 3789 fc3c
00000330: 2283 83bd 782a 18be ed41 fa3d 0ee3 d9ba
00000340: d820 173c c24c 30bd 89f1 0fbe 6fac a43d
00000350: fd95 67bc cf7f 02be 8917 253e b30d e43d
00000360: b76a fd3d 9176 1abe 1ff2 1abe c362 e53c
00000370: 8f53 c23d 33ab fd3d 657e f1bd abe3 9fbd
00000380: 70c3 c03c d68d 413d 45f8 8b3b f5f3 d33d
00000390: 61f8 183d 962d 38be 0ebf 133e d94d a13c
000003a0: f668 71bd a737 03be aa44 1abe 23c6 093e
000003b0: cbe0 b5bd 891e a1bc b4fc 2dbd 33aa a2bd
000003c0: c348 6d3d 0fc1 9d3d 4f94 90bd 643a ea3c
000003d0: 45ba 1e3d cbbc b1bd f740 573e 6c65 1dbe
000003e0: 3f27 5f3c 8d01 edbd c4a1 ff3d cf87 f83d
000003f0: 3f76 efbd 9813 d83d 312f 09be 838a f53d

encoder.block2.point_wise_up.1.weight f4 [64]
1.0363472 0.9979439 0.9154999 1.0155474 0.9685736 1.0399629 0.982436 1.0092939
0.9937888 0.98077595 0.9795431 0.9011882 0.98910445 0.9787165 1.0307455 0.9738991
0.98267066 0.9968238 1.0170177 0.976783 1.0114903 0.9924944 0.9362459 0.989311
0.9295791 0.9918408 0.952513 0.9784256 1.0225636 1.0091777 0.8747684 0.98458034
0.97029674 1.0082216 0.9262169 0.99033207 0.9747734 1.0312564 1.0041858 0.9895987
0.9961831 1.0322582 0.9833155 0.9996714 1.0228622 0.9975982 0.98293376 0.9718116
1.0518991 1.0171521 0.9514074 1.0011737 0.9518373 0.9425271 0.9663987 0.9860852
0.99014926 1.0177143 0.9856712 0.9701034 1.018331 0.836599 0.99530363 0.90838456
00000000: 06a7 843f 4079 7f3f 345e 6a3f 75fd 813f
00000010: 70f4 773f 811d 853f ed80 7b3f 8b30 813f
00000020: f168 7e3f 2214 7b3f 56c3 7a3f 45b4 663f
00000030: f335 7d3f 2a8d 7a3f 78ef 833f 7451 793f
00000040: 4e90 7b3f d82f 7f3f a32d 823f 730e 7a3f
00000050: 8478 813f 1d14 7e3f d0ad 6f3f 7c43 7d3f
00000060: e5f8 6d3f 47e9 7d3f e4d7 733f 1a7a 7a3f
00000070: 5de3 823f bc2c 813f d2f0 5f3f 750d 7c3f
00000080: 5e65 783f 680d 813f 8d1c 6d3f 6786 7d3f
00000090: c08a 793f 3600 843f 2989 803f 5756 7d3f
000000a0: db05 7f3f 0921 843f 91ba 7b3f 77ea 7f3f
000000b0: 26ed 823f 9862 7f3f 8ca1 7b3f a5c8 783f
000000c0: a1a4 863f 0a32 823f 6f8f 733f 7626 803f
000000d0: 9cab 733f 7549 713f e865 773f 1470 7c3f
000000e0: 6c7a 7d3f 7644 823f f354 7c3f b258 783f
000000f0: ac58 823f 5a2b 563f 38cc 7e3f e48b 683f
